…
WARNING:tensorflow:From C:\Users\dima_r1ze5pa\Anaconda3\lib\site-packages\keras\backend\tensorflow_backend.py:133: The name tf.placeholder_with_default is deprecated. Please use tf.compat.v1.placeholder_with_default instead.

WARNING:tensorflow:From C:\Users\dima_r1ze5pa\Anaconda3\lib\site-packages\keras\backend\tensorflow_backend.py:3445: calling dropout (from tensorflow.python.ops.nn_ops) with keep_prob is deprecated and will be removed in a future version.
Instructions for updating:
Please use `rate` instead of `keep_prob`. Rate should be set to `rate = 1 - keep_prob`.
_________________________________________________________________
Layer (type)                 Output Shape              Param #
=================================================================
conv2d_1 (Conv2D)            (None, 55, 55, 96)        34944
_________________________________________________________________
activation_1 (Activation)    (None, 55, 55, 96)        0
_________________________________________________________________
max_pooling2d_1 (MaxPooling2 (None, 27, 27, 96)        0
_________________________________________________________________
conv2d_2 (Conv2D)            (None, 17, 17, 256)       2973952
_________________________________________________________________
activation_2 (Activation)    (None, 17, 17, 256)       0
_________________________________________________________________
max_pooling2d_2 (MaxPooling2 (None, 8, 8, 256)         0
_________________________________________________________________
conv2d_3 (Conv2D)            (None, 6, 6, 384)         885120
_________________________________________________________________
activation_3 (Activation)    (None, 6, 6, 384)         0
_________________________________________________________________
conv2d_4 (Conv2D)            (None, 4, 4, 384)         1327488
_________________________________________________________________
activation_4 (Activation)    (None, 4, 4, 384)         0
_________________________________________________________________
conv2d_5 (Conv2D)            (None, 2, 2, 256)         884992
_________________________________________________________________
activation_5 (Activation)    (None, 2, 2, 256)         0
_________________________________________________________________
max_pooling2d_3 (MaxPooling2 (None, 1, 1, 256)         0
_________________________________________________________________
flatten_1 (Flatten)          (None, 256)               0
_________________________________________________________________
dense_1 (Dense)              (None, 4096)              1052672
_________________________________________________________________
activation_6 (Activation)    (None, 4096)              0
_________________________________________________________________
dropout_1 (Dropout)          (None, 4096)              0
_________________________________________________________________
dense_2 (Dense)              (None, 4096)              16781312
_________________________________________________________________
activation_7 (Activation)    (None, 4096)              0
_________________________________________________________________
dropout_2 (Dropout)          (None, 4096)              0
_________________________________________________________________
dense_3 (Dense)              (None, 1000)              4097000
_________________________________________________________________
activation_8 (Activation)    (None, 1000)              0
_________________________________________________________________
dropout_3 (Dropout)          (None, 1000)              0
_________________________________________________________________
dense_4 (Dense)              (None, 6)                 6006
_________________________________________________________________
activation_9 (Activation)    (None, 6)                 0
=================================================================
Total params: 28,043,486
Trainable params: 28,043,486
Non-trainable params: 0
_________________________________________________________________
WARNING:tensorflow:From C:\Users\dima_r1ze5pa\Anaconda3\lib\site-packages\keras\optimizers.py:790: The name tf.train.Optimizer is deprecated. Please use tf.compat.v1.train.Optimizer instead.
…
